…
_estimator='AM', run_validation=True, output_student=True, use_prototype_relation_alignment=False, pra_trade_off=0.1, pra_warmup_epochs=5, pra_min_samples_per_class=4)
Using classes: ['corn', 'horsebeans', 'meadow', 'spring_barley', 'spring_peas', 'sunflowers', 'unknown', 'winter_barley', 'winter_oat', 'winter_rapeseed', 'winter_triticale', 'winter_wheat']
Starting fold 0...
evaluation dataset: denmark/32VNH/2017
val target data: 6033 (48 batches)
test taget data: 12066 (1740 batches)
PseLTae(
  (spatial_encoder): PixelSetEncoder(
    (mlp1): Sequential(
      (0): LinearLayer(
        (linear): Linear(in_features=10, out_features=32, bias=False)
        (norm): BatchNorm1d(32, eps=1e-05, momentum=0.1, affine=True, track_running_stats=True)
        (activation): ReLU()
      )
      (1): LinearLayer(
        (linear): Linear(in_features=32, out_features=64, bias=False)
        (norm): BatchNorm1d(64, eps=1e-05, momentum=0.1, affine=True, track_running_stats=True)
        (activation): ReLU()
      )
    )
    (mlp2): Sequential(
      (0): LinearLayer(
        (linear): Linear(in_features=128, out_features=128, bias=False)
        (norm): BatchNorm1d(128, eps=1e-05, momentum=0.1, affine=True, track_running_stats=True)
        (activation): ReLU()
      )
    )
  )
  (temporal_encoder): LTAE(
    (inconv): LinearLayer(
      (linear): Linear(in_features=128, out_features=256, bias=False)
      (norm): BatchNorm1d(256, eps=1e-05, momentum=0.1, affine=True, track_running_stats=True)
      (activation): ReLU()
    )
    (positional_enc): Embedding(565, 256)
    (attention_heads): MultiHeadAttention(
      (key): Linear(in_features=256, out_features=128, bias=True)
      (dropout): Dropout(p=0.1, inplace=False)
      (softmax): Softmax(dim=-1)
    )
    (mlp): Sequential(
      (0): LinearLayer(
        (linear): Linear(in_features=256, out_features=128, bias=False)
        (norm): BatchNorm1d(128, eps=1e-05, momentum=0.1, affine=True, track_running_stats=True)
        (activation): ReLU()
      )
    )
    (dropout): Dropout(p=0.2, inplace=False)
  )
  (decoder): Sequential(
    (0): LinearLayer(
      (linear): Linear(in_features=128, out_features=64, bias=False)
      (norm): BatchNorm1d(64, eps=1e-05, momentum=0.1, affine=True, track_running_stats=True)
      (activation): ReLU()
    )
    (1): LinearLayer(
      (linear): Linear(in_features=64, out_features=32, bias=False)
      (norm): BatchNorm1d(32, eps=1e-05, momentum=0.1, affine=True, track_running_stats=True)
      (activation): ReLU()
    )
    (2): Linear(in_features=32, out_features=12, bias=True)
  )
)
Number of trainable parameters: 129356
corn [744   0   2   7   0   0   2   0   0   0   0   0]
horsebeans [ 1 16  0  0  0  0 50  0  0  0  0  0]
meadow [   7    1 1888   19    0    1  542    0    2   17    0    7]
spring_barley [  20    4   83 2526    5    1   66    0    5   20    0    7]
spring_peas [ 1  0 12 12 29  1 12  0  0  0  0  0]
sunflowers [0 0 0 0 0 0 0 0 0 0 0 0]
…
