…
Excluded 5 parcels from closed-set loading because class 'spring_oat' is not kept.
Excluded 2 parcels from closed-set loading because class 'spring_rapeseed' is not kept.
Excluded 5 parcels from closed-set loading because class 'spring_wheat' is not kept.
Excluded 1810 parcels from closed-set loading because class 'unknown' is not kept.
Excluded 8 parcels from closed-set loading because class 'winter_rye' is not kept.
evaluation dataset: france/30TXT/2017
val target data: 9681 (76 batches)
test taget data: 19391 (1351 batches)
PseLTae(
  (spatial_encoder): PixelSetEncoder(
    (mlp1): Sequential(
      (0): LinearLayer(
        (linear): Linear(in_features=10, out_features=32, bias=False)
        (norm): BatchNorm1d(32, eps=1e-05, momentum=0.1, affine=True, track_running_stats=True)
        (activation): ReLU()
      )
      (1): LinearLayer(
        (linear): Linear(in_features=32, out_features=64, bias=False)
        (norm): BatchNorm1d(64, eps=1e-05, momentum=0.1, affine=True, track_running_stats=True)
        (activation): ReLU()
      )
    )
    (mlp2): Sequential(
      (0): LinearLayer(
        (linear): Linear(in_features=128, out_features=128, bias=False)
        (norm): BatchNorm1d(128, eps=1e-05, momentum=0.1, affine=True, track_running_stats=True)
        (activation): ReLU()
      )
    )
  )
  (temporal_encoder): LTAE(
    (inconv): LinearLayer(
      (linear): Linear(in_features=128, out_features=256, bias=False)
      (norm): BatchNorm1d(256, eps=1e-05, momentum=0.1, affine=True, track_running_stats=True)
      (activation): ReLU()
    )
    (positional_enc): Embedding(565, 256)
    (attention_heads): MultiHeadAttention(
      (key): Linear(in_features=256, out_features=128, bias=True)
      (dropout): Dropout(p=0.1, inplace=False)
      (softmax): Softmax(dim=-1)
    )
    (mlp): Sequential(
      (0): LinearLayer(
        (linear): Linear(in_features=256, out_features=128, bias=False)
        (norm): BatchNorm1d(128, eps=1e-05, momentum=0.1, affine=True, track_running_stats=True)
        (activation): ReLU()
      )
    )
    (dropout): Dropout(p=0.2, inplace=False)
  )
  (decoder): Sequential(
    (0): LinearLayer(
      (linear): Linear(in_features=128, out_features=64, bias=False)
      (norm): BatchNorm1d(64, eps=1e-05, momentum=0.1, affine=True, track_running_stats=True)
      (activation): ReLU()
    )
    (1): LinearLayer(
      (linear): Linear(in_features=64, out_features=32, bias=False)
      (norm): BatchNorm1d(32, eps=1e-05, momentum=0.1, affine=True, track_running_stats=True)
      (activation): ReLU()
    )
    (2): Linear(in_features=32, out_features=12, bias=True)
  )
)
Number of trainable parameters: 129356
Excluded 21 parcels from closed-set loading because class 'spring_oat' is not kept.
Excluded 5 parcels from closed-set loading because class 'spring_rapeseed' is not kept.
Excluded 1 parcels from closed-set loading because class 'spring_rye' is not kept.
Excluded 27 parcels from closed-set loading because class 'spring_wheat' is not kept.
…
